vue_django_KnGraph/KnGraph/back/KGE/result/best_transe_model.pth (torch, 138452 bytes, 2 tensors)

entity_emb.weight f4 [168, 200]
0.051583692 -0.010419584 0.11503362 0.017674748 0.02185474 0.019291284 -0.02748322 -0.015397884
-0.037060793 -0.027968911 -0.041283224 0.0008476378 0.036774065 0.0050713406 0.055688847 -0.019060941
-0.096234605 0.0096352985 -0.022931028 0.0080252495 0.13117668 -0.033601396 -0.049062833 -0.04441868
-0.14411442 -0.05481938 -0.05191555 -0.03901601 0.12762193 -0.072338 -0.11397192 0.036330026
0.14705373 -0.030968523 -0.022878354 0.010333205 -0.03765498 0.04912589 -0.1713264 0.054234724
0.006313215 -0.07251332 -0.0002645206 0.015763665 0.00806937 -0.09734389 0.027357955 -0.08269454
0.039760318 0.011929783 0.028670782 0.024226397 -0.101351134 -0.02614117 -0.04683768 -0.013861647
0.01743942 0.018863741 -0.037730966 -0.022685565 0.13245949 -0.02395949 0.08292405 -0.029776718
-0.12859267 -0.104081035 -0.08919473 0.0018282816 0.023410695 -0.06923082 -0.13687292 0.033879016
-0.013928759 -0.13414049 0.039367486 -0.0021322428 -0.0046617603 0.09714134 -0.08923855 0.14926374
0.035218626 0.028659243 -0.015690453 0.016783752 0.047163043 -0.03809233 -0.011652573 -0.08036423
-0.023096742 0.0017767684 -0.024897465 0.09267808 -0.0908563 0.109440885 -0.022334987 -0.041228775
-0.01807588 -0.11706534 -0.13117452 0.14824566 0.1831389 -0.0026694755 0.042964887 0.10390529
0.0076279407 -0.05203515 -0.043433063 0.069344796 -0.03279729 -0.10603535 0.18873052 -0.059079867
-0.030247884 -0.101556435 0.03113271 -0.004797852 0.034699306 -0.036720183 0.041006263 0.052675493
0.082354516 0.06947318 -0.08873569 -0.048809074 0.063106656 -0.047895942 0.025655992 -0.18683577
-0.047151484 -0.19350831 0.030915096 -0.031998917 0.10822299 -0.14388232 0.01499759 -0.022429269
-0.006672377 0.059577387 -0.047215868 0.043384314 -0.01047466 0.06066413 0.0046100835 -0.047046445
0.13103198 -0.06980704 -0.12401414 0.0061112647 0.06640424 -0.027465548 0.10409284 0.08182747
-0.089951955 0.042739213 0.10566531 0.08807421 -0.011327181 0.028654687 0.0015861106 -0.053917572
-0.018052276 0.025281893 0.07398258 0.08834399 0.008750981 -0.026745597 0.11745804 0.06828015
-0.01597388 -0.053669523 -0.018956093 -0.101749904 0.026621582 -0.09597278 0.01653388 -0.014875411
0.030761711 0.1011921 -0.1250243 0.11177115 0.10812085 0.037497547 0.007132882 -0.12519264
-0.021181038 0.13955306 0.046188228 -0.08921704 -0.023347478 0.009460264 0.034945935 -0.13932186
0.15328193 0.04387823 -0.021255016 -0.036513887 -0.025186801 0.12762511 0.06493829 0.073057756
0.12306267 -0.04348523 0.10667596 -0.079350024 0.1038653 -0.052818358 -0.1248949 0.052356105
0.08694129 0.026330471 0.050056446 -0.12874173 -0.076105505 0.08400946 0.1259863 0.10979912
-0.09005939 -0.032743834 -0.03330769 0.12948665 -0.06967285 -0.035490252 0.0048312857 -0.061328046
-0.12457719 -0.014256137 -0.08426563 0.032012157 0.09931524 -0.14332177 0.0050267344 0.10327417
0.115110904 -0.025725026 0.013922003 0.056316767 0.06364091 -0.030620422 -0.12436949 -0.013823911
-0.025511999 -0.09946492 0.13867629 0.039044727 -0.060332067 -0.00017777456 -0.04163351 0.02905199
0.05808825 0.012193562 0.07889527 0.037415236 0.019371977 0.07579082 -0.099411085 -0.09360969
00000000: 6c49 533d e7b6 2abc bf96 eb3d a2ca 903c
00000010: b608 b33c c108 9e3c 7d24 e1bc 6847 7cbc
00000020: 0fcd 17bd 0f1f e5bc 9918 29bd 0334 5e3a
00000030: 67a0 163d 7d2d a63b fd19 643d b125 9cbc
00000040: a616 c5bd 5fdd 1d3c dad9 bbbc 567c 033c
00000050: 2e53 063e 9ea1 09bd 1cf6 48bd 5df0 35bd
00000060: bb92 13be 498a 60bd 66a5 54bd 40cf 1fbd
00000070: 53af 023e f225 94bd 1c6a e9bd cbce 143d
00000080: 4195 163e b3b1 fdbc 636b bbbc 9a4c 293c
00000090: 1c3c 1abd 3b38 493d 3070 2fbe 3b25 5e3d
000000a0: 16df ce3b dd81 94bd 5baf 8ab9 cd22 813c
000000b0: 6435 043c 3c5c c7bd ca1d e03c c15b a9bd
000000c0: b7db 223d 2375 433c fdde ea3c 7076 c63c
000000d0: 2f91 cfbd 0226 d6bc ded8 3fbd f61b 63bc
000000e0: 1ddd 8e3c 2288 9a3c c98b 1abd 14d7 b9bc
000000f0: 76a3 073e b146 c4bc 16d4 a93d 4eee f3bc
00000100: ccad 03be 7028 d5bd baab b6bd f3a2 ef3a
00000110: c9c7 bf3c e3c8 8dbd 6a28 0cbe b9c4 0a3d
00000120: 7335 64bc 205c 09be cd3f 213d 19bd 0bbb
00000130: aec1 98bb 0af2 c63d b3c2 b6bd 98d8 183e
00000140: 6841 103d cac6 ea3c 4489 80bc 147e 893c
00000150: 092e 413d b406 1cbd 6fea 3ebc 0096 a4bd
00000160: 6135 bdbc 74e2 e83a c5f5 cbbc 01ce bd3d
00000170: de12 babd 8b22 e03d ddf7 b6bc 81df 28bd
00000180: de13 94bc f4bf efbd 9d52 06be b6cd 173e
00000190: c488 3b3e 5ef2 2ebb f3fb 2f3d 4ccc d43d
000001a0: cef3 f93b cf22 55bd dee6 31bd a504 8e3d
000001b0: 7356 06bd 1029 d9bd 9342 413e bbfd 71bd
000001c0: 69ca f7bc d2fc cfbd 060a ff3c 4d37 9dbb
000001d0: dc20 0e3d e767 16bd 2ff6 273d 42c2 573d
000001e0: 7ca9 a83d f447 8e3d 0fbb b5bd 06ec 47bd
000001f0: 103e 813d 892e 44bd 842c d23c e051 3fbe
00000200: ea21 41bd 0b27 46be a841 fd3c 4c11 03bd
00000210: 04a4 dd3d e355 13be 74b8 753c 96bd b7bc
00000220: f5a3 dabb 6b07 743d 6d65 41bd c0b3 313d
00000230: e99d 2bbc f37a 783d 2f10 973b c6b3 40bd
00000240: 3f2d 063e fef6 8ebd 20fb fdbd 0141 c83b
00000250: f2fe 873d 6eff e0bc a02e d53d 2995 a73d
00000260: bb38 b8bd 500f 2f3d 0e67 d83d 4060 b43d
00000270: a495 39bc 3cbd ea3c 0ae5 cf3a acd8 5cbd
00000280: 5ee2 93bc f91b cf3c 2e84 973d b2ed b43d
00000290: 4660 0f3c 9519 dbbc d78d f03d 77d6 8b3d
000002a0: a8db 82bc 93d4 5bbd cf49 9bbc 4162 d0bd
000002b0: 8115 da3c 608d c4bd 0f72 873c ffb7 73bc
000002c0: fcff fb3c ce3d cf3d 5f06 00be 46e8 e43d
000002d0: 776e dd3d 0797 193d f3ba e93b 8032 00be
000002e0: db83 adbc ffe6 0e3e de2f 3d3d 6cb7 b6bd
000002f0: 3643 bfbc 39ff 1a3c 7823 0f3d 64aa 0ebe
00000300: f0f5 1c3e a9b9 333d 001f aebc 968f 15bd
00000310: 8d54 cebc 28b0 023e 5efe 843d 4e9f 953d
00000320: 4808 fc3d 921d 32bd ed78 da3d 4482 a2bd
00000330: 55b7 d43d 1058 58bd e6c8 ffbd 5b73 563d
00000340: 460e b23d 00b3 d73c fd07 4d3d dfd4 03be
00000350: 34dd 9bbd 270d ac3d 8d02 013e 5cde e03d
00000360: 0f71 b8bd 661e 06bd a56d 08bd 2698 043e
00000370: a4b0 8ebd 3a5e 11bd c34f 9e3b 1e33 7bbd
00000380: 5322 ffbd 9392 69bc 7593 acbd 2e1f 033d
00000390: ca65 cb3d f1c2 12be 4eb7 a43b 6881 d33d
000003a0: 44bf eb3d 4abd d2bc 1d19 643c 69ac 663d
000003b0: 2a56 823d aed7 fabc 6eb5 febd af7d 62bc
000003c0: 8afe d0bc 44b4 cbbd 2801 0e3e 5ded 1f3d
000003d0: c21e 77bd ff68 3ab9 e687 2abd 70fe ed3c
000003e0: f2ed 6d3d 82c7 473c d893 a13d b840 193d
000003f0: fbb1 9e3c 3838 9b3d 0a98 cbbd 70b6 bfbd

relation_emb.weight f4 [3, 200]
0.088445716 0.12574033 -0.11738301 -0.17347758 0.077851854 -0.031131664 -0.0034586352 -0.09859276
0.13446583 0.12073993 0.09799992 -0.14348234 -0.022689052 0.08546526 0.05860834 0.17729224
0.1279789 0.0111259315 0.09396277 0.080104 -0.20192838 0.061133254 -0.05952366 0.16712478
0.106701426 0.049267776 0.09335633 0.13173987 -0.008765562 0.03145177 0.18245253 0.081276044
-0.07196278 0.027931204 0.13227002 -0.068149395 0.15085164 -0.06820923 0.18941376 -0.052436594
0.04212036 0.051598333 0.17444919 -0.026381975 -0.06545842 0.06673009 -0.052057315 0.14952865
-0.0039563766 -0.054692283 0.08546108 -0.080515854 0.08911735 0.015837543 -0.024142146 -0.07273007
-0.0043161334 -0.13428733 0.018943103 0.09966481 -0.06478748 0.021287788 0.054176576 0.14553896
0.13559936 0.058975216 0.13080421 0.024275696 0.021643873 0.16736907 0.13237406 0.04066842
0.031854127 0.04627972 -0.12179353 -0.092426345 0.20101364 -0.12470481 0.0018293816 -0.13224004
-0.061902665 -0.020691892 0.07886881 0.1472612 -0.05718954 0.16886014 0.01066255 -0.09505947
0.085899524 -0.032068405 0.011040236 -0.09842715 0.043452974 0.06081919 0.10549268 0.10669796
-0.009269009 0.06837488 0.083030134 -0.11309001 -0.19760169 -0.06063253 -0.1648512 -0.07553487
-0.050964613 0.095359415 0.049210116 -0.2014973 0.030190561 0.13591668 -0.073877625 0.034503143
-0.01713881 0.049776644 0.031789634 -0.06910469 -0.12107418 0.023190452 -0.109555565 0.08226193
-0.026752606 -0.0008683551 -0.017726412 0.13446471 -0.1393683 -0.04756158 -0.11283174 0.047936544
0.16027834 0.19445255 -0.0946344 -0.006386632 -0.01579466 0.17955211 -0.18490273 -0.12785958
0.0084096175 -0.10380425 -0.10152368 -0.039367985 -0.07188808 -0.13972291 0.0650159 0.10193821
-0.0875223 0.20345795 0.12700199 0.0643299 0.1956104 -0.10885359 -0.10757635 -0.05068227
0.14574735 -0.10622928 -0.08696156 -0.17570604 0.04680776 -0.10155974 -0.014911751 -0.032989215
0.13983233 0.053227466 -0.046756282 -0.10212269 0.02399012 0.03623894 -0.16860016 0.029526941
-0.03987923 -0.088459186 -0.04335742 0.07019264 -0.11598664 0.013007873 0.028083166 -0.071931556
-0.095397115 -0.13557701 0.06865073 -0.12835373 -0.057505473 0.14347036 0.09568719 0.1456937
0.010846495 -0.15805385 0.11533998 0.115909904 -0.028322458 -0.15285793 0.09207024 0.1720921
-0.22072415 -0.13655911 -0.04682619 0.056019112 -0.13655809 -0.06813537 0.024905726 -0.082837276
-1.5762132e-06 -0.001964997 -3.169195e-05 -1.16307865e-05 1.7379845e-06 7.668774e-06 3.9789524e-05 2.5236764e-07
-4.5389334e-06 0.0017164572 -0.018562665 -1.3628737e-06 4.6623336e-06 -1.9044949e-06 0.0099178655 -0.0022091372
-0.005140956 -0.0044631995 1.09242194e-07 2.4402789e-06 5.3456824e-05 -0.006005114 -5.340872e-08 2.4316367e-07
1.1173569e-08 -0.0018710273 -2.0319828e-07 -0.007913377 -1.275343e-07 0.0013022206 -2.653066e-06 2.7079125e-08
-7.9438263e-07 1.2367647e-07 1.7479211e-05 -0.004641138 6.210636e-05 0.0010461815 0.01596759 -0.0149649745
-1.0797705e-05 -0.003311025 4.3496734e-06 0.005196759 0.0018109886 -0.0134841 0.0051385276 0.00013077576
2.8225699e-08 1.3720336e-05 -0.01704789 1.6028142e-08 -4.398072e-05 1.2758861e-08 1.8590296e-06 -0.0007014637
00000000: 0723 b53d 13c2 003e 8166 f0bd 1ba4 31be
00000010: cb70 9f3d d507 ffbc 45aa 62bb 00eb c9bd
00000020: 69b1 093e 7f46 f73d 2fb4 c83d 09ed 12be
00000030: 64de b9bc 6908 af3d 4c0f 703d 198c 353e
00000040: e70c 033e 8a49 363c 8e6f c03d 910d a43d
00000050: 50c6 4ebe dd66 7a3d 15cf 73bd c222 2b3e
00000060: 4786 da3d 02cd 493d 9b31 bf3d d1e6 063e
00000070: 6f9d 0fbc 92d3 003d d6d4 3a3e 0e74 a63d
00000080: 3961 93bd fbcf e43c cb71 073e e991 8bbd
00000090: da78 1a3e 48b1 8bbd aef5 413e c1c7 56bd
000000a0: 6686 2c3d c658 533d cfa2 323e 031f d8bc
000000b0: 100f 86bd c9a9 883d 0d3a 55bd 0a1e 193e
000000c0: 7ea4 81bb 0405 60bd 3806 af3d 7fe5 a4bd
000000d0: 2883 b63d bcbd 813c c0c5 c5bc 81f3 94bd
000000e0: 5a6e 8dbb 9e82 09be 912e 9b3c 101d cc3d
000000f0: 4caf 84bd ba63 ae3c 42e8 5d3d 2a08 153e
00000100: 8fda 0a3e ff8f 713d 8af1 053e d3dd c63c
00000110: 7e4e b13c cc62 2b3e 118d 073e ee93 263d
00000120: 7979 023d ce8f 3d3d e36e f9bd 064a bdbd
00000130: 85d6 4d3e 3c65 ffbd dcc7 ef3a ef69 07be
00000140: a68d 7dbd 0b82 a9bc f885 a13d a4cb 163e
00000150: 943f 6abd ace9 2c3e fab1 2e3c 8aae c2bd
00000160: 17ec af3d 295a 03bd 1be2 343c 2c94 c9bd
00000170: bffb 313d 8b1d 793d 8c0c d83d 7684 da3d
00000180: 0bdd 17bc 2108 8c3d b40b aa3d bc9b e7bd
00000190: 1958 4abe d159 78bd c1ce 28be 07b2 9abd
000001a0: 45c0 50bd cc4b c33d 8c90 493d 4f55 4ebe
000001b0: 3252 f73c be2d 0b3e 274d 97bd 2b53 0d3d
000001c0: b166 8cbc 98e2 4b3d d935 023d c286 8dbd
000001d0: bdf5 f7bd e7f9 bd3c ab5e e0bd f178 a83d
000001e0: 4828 dbbc 53a2 63ba fb36 91bc 1eb1 093e
000001f0: 90b6 0ebe eecf 42bd 5414 e7bd 1c59 443d
00000200: 0120 243e 921e 473e aecf c1bd f446 d1bb
00000210: ce63 81bc 82dc 373e 2457 3dbe 9fed 02be
00000220: 7ec8 093c 5397 d4bd a6eb cfbd 5340 21bd
00000230: 0f3a 93bd 8613 0fbe 0e27 853d fbc4 d03d
00000240: e43e b3bd 4857 503e cf0c 023e 65bf 833d
00000250: 184e 483e a2ee debd fd50 dcbd 3698 4fbd
00000260: cb3e 153e bd8e d9bd e718 b2bd 49ec 33be
00000270: 7eb9 3f3d 8efe cfbd 6b50 74bc b31f 07bd
00000280: 3530 0f3e 0b05 5a3d 8483 3fbd b325 d1bd
00000290: ee86 c43c 486f 143d 85a5 2cbe 7ce2 f13c
000002a0: 6758 23bd 172a b5bd 8d97 31bd 29c1 8f3d
000002b0: 678a edbd f91e 553c ab0e e63c da50 93bd
000002c0: 905f c3bd b3d4 0abe c198 8c3d 296f 03be
000002d0: dc8a 6bbd e5e9 123e a5f7 c33d bb30 153e
000002e0: 7fb5 313c ded8 21be 5e37 ec3d 2c62 ed3d
000002f0: 8004 e8bc ca86 1cbe 528f bc3d e938 303e
00000300: 8305 62be 27d6 0bbe d2cc 3fbd 4c74 653d
00000310: e2d5 0bbe 8f8a 8bbd 1807 cc3c 97a6 a9bd
00000320: 468e d3b5 2ec7 00bb f9ec 04b8 d921 43b7
00000330: b144 e935 22a9 0037 ade3 2638 257d 8734
00000340: 244d 98b6 bffa e03a bb10 98bc fceb b6b5
00000350: 2471 9c36 f29d ffb5 8b7e 223c 2cc7 10bb
00000360: 7775 a8bb 0840 92bb 8898 ea33 acc3 2336
00000370: d436 6038 8cc6 c4bb 8263 65b3 298c 8234
00000380: e0f5 3f32 423d f5ba b82e 5ab4 1ca7 01bc
00000390: 5df0 08b4 46af aa3a 540b 32b6 a09b e832
000003a0: 8f3d 55b5 eecb 0434 52a0 9237 b014 98bb
000003b0: 193f 8238 0720 893a 77ce 823c a72f 75bc
000003c0: ca27 35b7 c8fd 58bb 69f3 9136 9349 aa3b
000003d0: b25e ed3a 6aec 5cbc 1861 a83b da20 0939
000003e0: f874 f232 6530 6637 04a8 8bbc 42ae 8932
000003f0: f077 38b8 1032 5b32 c583 f935 6fe2 37ba
